project3/srcnn/model/best.pth (torch, 231466 bytes, 5 tensors)

conv1.weight f4 [64, 1, 9, 9]
000000 f2 f7 d8 bc 5f e1 32 3d 48 28 85 bd cf 60 bb bc
       -0.026485417 0.043671962 -0.06501824 -0.02287331
000010 7d fd bc 3d 54 1d 5a 3c 57 73 2a bd 3b 71 36 3d
       0.092280366 0.013312656 -0.041613903 0.04454158
000020 e4 b5 85 3d 69 1c cd 3a 42 92 bc 3d b2 7e 74 bc
       0.065288335 0.0015648726 0.09207584 -0.014922785
000030 05 2e dd 3d aa b6 b3 bd a2 8e 0f 3d 43 38 8c bd
       0.10799793 -0.08775075 0.035048135 -0.068466686
000040 0b 5f 30 bb 6c 74 a6 bd c2 86 86 bc f9 47 08 bc
       -0.0026912119 -0.081276745 -0.01642168 -0.008317941
000050 1c ad 16 3c c0 64 cb bd b7 04 2f bd fb 52 07 3c
       0.009196546 -0.09931326 -0.042729106 0.00825953
000060 ea 2d 2d 3d 6d eb b3 3d 58 39 be 3d 28 2d 99 3a
       0.042280115 0.08785138 0.09288281 0.0011686431
000070 6a 25 12 3c a1 d8 d4 3d a9 fa db bc 51 6d c9 bd
       0.008920053 0.10392881 -0.026852923 -0.098353036
000080 da 70 0c 3c 66 3d a3 bd 61 1a df 3c c3 00 bc bc
       0.008571828 -0.07970695 0.027234258 -0.022949582
000090 2a b9 ce 3b b7 30 b9 bd f9 4b a6 3d a0 63 09 bc
       0.0063086944 -0.09042495 0.081199594 -0.008385569
0000a0 20 49 2d 3c 5f 81 d0 3d b9 fc 83 bd dd de 41 3d
       0.010576516 0.101809256 -0.064446874 0.04733168
0000b0 29 e8 d8 3d 4a 90 b1 3c f3 65 c0 bd 2f 96 28 bd
       0.10591156 0.021675248 -0.09394445 -0.04115885
0000c0 c7 34 34 bd 1b 2d 10 bd 41 45 c0 bd 8a 00 33 3b
       -0.043995645 -0.035199266 -0.09388209 0.0027313554
0000d0 4e 01 8b 3d db 8e a5 3d 71 b9 68 bd af 61 6c bd
       0.06787358 0.08083888 -0.056817476 -0.057710346
0000e0 f1 89 a2 3d 4c 5b 4f 3d d8 6e 2f bd b8 02 9b bd
       0.079364665 0.050624177 -0.04283032 -0.07568878
0000f0 30 fa a5 bd 50 f3 4d 3a a9 a4 4b 3d cf 96 79 3d
       -0.0810436 0.0007856386 0.04971758 0.060934838
000100 ce db d3 3d 69 8d 35 bc a9 66 f6 bc 15 2b 2e 3d
       0.10344659 -0.011081078 -0.030078249 0.042521555
000110 16 71 1f bd a8 55 09 bd 71 f3 57 3c 83 df 88 bd
       -0.038926207 -0.033528954 0.0131806 -0.066832565
000120 c6 56 89 bd 58 af c9 3d 34 09 2e bd 45 51 2c 3c
       -0.06706004 0.09847897 -0.042489246 0.010517423
000130 42 f2 91 3d 4a 00 30 bd 1f 2e 98 bd 5e 4e e9 3d
       0.07126285 -0.042969026 -0.07430672 0.113919005
000140 64 26 56 bd 62 dd aa bc 6a 94 0c 3c 50 b1 91 bc
       -0.052282706 -0.020857517 0.008580307 -0.017784745
000150 45 d8 86 3d 66 34 f3 bc 47 f4 58 bc 57 8b aa 3d
       0.06584219 -0.029688071 -0.013241834 0.08327358
000160 0b 02 99 3c a3 ee a0 bd 3c ab 49 bc fd 64 11 bd
       0.018677732 -0.07858016 -0.012308892 -0.0354967
000170 02 ec c2 bc ba 99 5c bc a3 ff 4b 3d a6 3e 1c 3c
       -0.023794178 -0.013464386 0.04980434 0.009536421
000180 90 2b c6 bd 17 43 4b 3d a2 79 0e 3d be 85 04 3e
       -0.09676278 0.04962453 0.034783967 0.12941644
000190 d5 25 ad bd f9 cc 90 3d a3 fe 6e bd 68 fd 46 bc
       -0.084544815 0.070703454 -0.05834831 -0.012145378
0001a0 f1 ec bf bd 6d d3 a3 bc 49 ab 81 bb d0 db 85 3d
       -0.09371365 -0.019998277 -0.0039571864 0.065360665
0001b0 b0 d1 82 b9 e4 fa 22 bd af a2 f8 3d b2 74 9e 3d
       -0.00024951762 -0.03979005 0.121404044 0.077371016
0001c0 4a bc 12 3e 0c 1c 85 bc a8 09 20 3d ba 4b e6 bc
       0.14329639 -0.016248725 0.03907171 -0.028112281
0001d0 9e f3 ba bd ff 51 e4 bc d0 21 44 be 7f a4 1d be
       -0.091284975 -0.02787113 -0.19153523 -0.15394782
0001e0 32 80 8e bd 52 c8 93 bd ef 55 31 bd 52 c6 89 bc
       -0.06958045 -0.072159424 -0.043294843 -0.0168182
0001f0 92 3b 84 bc 9f 53 29 3d 90 9f 0f 3e 17 f1 06 be
       -0.016141687 0.041339513 0.14025712 -0.13177906
000200 d2 24 ee bd 89 e3 21 be 2d 08 1d be 14 ae 15 3d
       -0.11628117 -0.15809454 -0.1533515 0.036542967
000210 78 fb b2 bc 6b 9b 07 3c a4 71 dd 3b 28 9b fb bc
       -0.021848425 0.008276801 0.006757932 -0.030713633
000220 3b 9b 0c bc be fb b8 3d a0 be e5 3d 9f b2 8a 3d
       -0.008581932 0.09032391 0.112179995 0.067723505
000230 b8 0f 03 3d 20 e0 c6 3d aa 15 97 bd 8a 25 af 3d
       0.031997412 0.09710717 -0.07377179 0.08552082
000240 a4 57 6a bd 59 05 b9 3d e3 72 b2 3d 8d bf 14 3e
       -0.057212487 0.09034223 0.08713319 0.14526196
000250 42 02 28 3e 24 43 03 be 9f 7b a8 bb f1 f0 9e 3d
       0.16407111 -0.12818581 -0.00514169 0.077608
000260 25 9c a4 bd 8f 58 25 3d 27 88 26 bd e7 12 f4 bb
       -0.08037595 0.04036766 -0.04065719 -0.0074485424
000270 4f 88 c2 3d 10 dd 19 3c 9c d0 d7 bd 62 68 be bb
       0.09498655 0.009391084 -0.10537836 -0.0058107832
000280 07 8f 39 bc 55 9a 87 3c 31 3b 0c 3d b6 83 bb bd
       -0.011325604 0.016553083 0.034236137 -0.09155981
000290 1c 01 14 3d e5 f3 f7 3c 5d 32 aa 3d bd 2d 3c 3d
       0.03613387 0.030267665 0.08310387 0.045942057
0002a0 a3 d9 d9 bd f1 55 47 3d be 41 e9 3b 50 f9 bc 3d
       -0.10637214 0.048665944 0.007118433 0.0922724
0002b0 d3 5f 8b bc c8 d2 77 3d e6 54 5e bd 54 d8 7a bb
       -0.017013466 0.06050375 -0.054280184 -0.0038275914
0002c0 2a a2 4b 3d 52 22 d5 bc 5a 66 aa bd b0 77 1f 3d
       0.0497152 -0.026017342 -0.08320303 0.038932502
0002d0 4f d2 36 3d 73 f5 10 bc 5a 3d ca bc ef 46 58 3c
       0.04463416 -0.008847582 -0.024687458 0.013200506
0002e0 73 3b e4 3c cd 70 71 3c 5c 4c 34 bd 0c 4e bc 3d
       0.027860379 0.014736366 -0.044018134 0.09194574
0002f0 5b cc ac 3b 25 7f 30 bd 7b a3 5a bd 5e b5 52 bd
       0.0052733845 -0.043090004 -0.053378563 -0.051442496
000300 68 f7 d0 bc fb a3 6f 3d 8a 69 25 bd ec 17 0a bd
       -0.025508597 0.058505993 -0.040383853 -0.03371422
000310 0a 6f 7e 3d 67 d0 dc bc 82 9e 47 3d d8 32 56 bd
       0.062117614 -0.026954843 0.04873515 -0.052294582
000320 ca fc 9b bd 6b d2 7c bd c6 59 0b 3e 2c 9f a0 3c
       -0.07616575 -0.061724108 0.13608465 0.019607149
000330 ce cd fe bc 9f 7d 65 bd 58 f8 95 bd 7d ac 3e 3b
       -0.031103995 -0.056028005 -0.073227584 0.002909451
000340 0e 71 18 3c 69 ed a2 bd a6 d9 8f bd 18 b4 34 3e
       0.009304298 -0.07955439 -0.07023935 0.17646825
000350 d5 39 d7 3d 78 27 ce bd f1 84 93 3c 67 55 62 3c
       0.105090775 -0.10066122 0.018007727 0.013814307
000360 93 55 8c 3c 36 6b 37 3d 8d 73 ab 3d c5 09 c5 bb
       0.017130649 0.04477998 0.08371649 -0.0060131275
000370 0c 67 19 3e a0 c4 9c 39 df ce aa bd b6 20 16 bd
       0.14980716 0.00029901136 -0.08340239 -0.03665229
000380 9e 34 0b 3e 07 23 5c 3d a6 50 aa bd 41 2c 87 3c
       0.1359429 0.053744342 -0.08316164 0.016500594
000390 50 08 ef 3d e0 ef 68 3d e8 f7 ef 3d 4f 9d d6 bc
       0.11671507 0.056869388 0.11717206 -0.026198057
0003a0 8e cf 47 bb d3 02 21 3d f8 97 ce bd ff 58 5e bd
       -0.0030488702 0.039309334 -0.100875795 -0.054284092
0003b0 f2 b8 c7 3d 6e d2 48 3c 94 f6 a4 bd a3 cf a0 bd
       0.097520724 0.012257202 -0.080548435 -0.078521036
0003c0 ba 21 ed bc 20 dc a5 bc d0 cd 9d bd 08 f0 6d bd
       -0.028946746 -0.020246565 -0.07705271 -0.05809024
0003d0 68 eb 63 bd 0a c2 7e bc 91 59 50 bd 09 1f ef 3c
       -0.055644423 -0.015549192 -0.050866667 0.029189603
0003e0 ca 38 ad 3d 3e b2 a9 b8 f9 39 13 bd da fd ed 3c
       0.08458097 -8.091748e-05 -0.03594396 0.02905171
0003f0 94 27 ce 3c 44 b9 32 3d 98 9d b0 3d d5 a8 d1 bd
       0.025165357 0.043633714 0.086238086 -0.1023728

conv1.bias f4 [64]
000000 45 6b eb 3d c2 dc 76 3c 89 f1 27 3d ab 6b 63 bc
       0.114950694 0.015067281 0.04100183 -0.0138806505
000010 73 4e 1a 3d a4 4f d4 bd 2b 0a 9b 3d 2f 45 71 3d
       0.03767247 -0.10366753 0.07570299 0.05890387
000020 9b 54 30 3d 28 0a 06 3d 01 86 30 bd e2 6e 9b 3c
       0.043049436 0.03272453 -0.043096546 0.018973771
000030 7c a8 ef bd 2b 1c ff bc b6 62 92 bc bc 5b 8e bd
       -0.11702058 -0.031141361 -0.017869335 -0.06951091
000040 a5 db 82 3d bc b7 88 3a fc 0a d8 3c ff ad 5c 3c
       0.0638955 0.0010430734 0.026372425 0.013469218
000050 72 b7 10 bd 3a 64 a3 bc f8 67 1a 3d a9 ef bd bb
       -0.035331197 -0.019945253 0.03769681 -0.005796392
000060 46 9c 00 3d bd 85 a2 3c 46 8e a3 bd e8 30 a0 3d
       0.031399034 0.019839162 -0.07986121 0.07821828
000070 d3 ed 4b 3d a0 65 3c 3c 07 43 98 ba d4 08 25 3d
       0.049787354 0.011498839 -0.0011616655 0.040291622
000080 16 1d b4 bc ed 01 7b bc cd d2 5e bb 5a fd 4e 3d
       -0.021986526 -0.015320283 -0.0034000159 0.050534584
000090 c1 ba 88 3c e0 95 bb bb 92 cd 62 bd e1 87 d1 3c
       0.016690614 -0.0057246536 -0.05537183 0.025577487
0000a0 1b 09 a5 3c a4 23 46 bd e8 38 31 bd 9e 30 fb 3c
       0.020145943 -0.048373833 -0.04326716 0.03066283
0000b0 a7 2a af 3d 22 9e 35 bd 08 74 93 3c 45 88 49 3c
       0.08553057 -0.04434026 0.017999664 0.012300556
0000c0 2d 61 90 bb d1 eb 40 bd e5 b7 68 3d 8c a3 6b 3c
       -0.0044061155 -0.047099892 0.056816 0.014382254
0000d0 84 45 0a 3d a6 bc 95 3d 38 ff 0d 3a 12 ff 20 3d
       0.0337577 0.073113725 0.00054167537 0.039305754
0000e0 b6 22 18 3c e4 62 5d be 3d 89 c7 bc 87 17 ae 3d
       0.0092856195 -0.21619755 -0.024357432 0.08500581
0000f0 a7 64 d8 3c 96 15 33 3d f7 02 79 bd 36 36 82 bb
       0.026415182 0.043721758 -0.060793843 -0.0039737476

conv2.weight f4 [32, 64, 5, 5]
000000 a3 0e 68 bd 9d 38 51 bc 59 b4 b6 3c 1e 4c 5c bd
       -0.056654584 -0.012769845 0.022302793 -0.05378353
000010 c1 cd bc bc b4 e8 90 bc f1 9e 3c bc 8f 3b 13 3d
       -0.02304733 -0.017689086 -0.011512504 0.03594547
000020 80 2f a6 bb d0 17 62 bb f4 94 f1 bc e4 2c 1c 3c
       -0.0050715804 -0.0034499057 -0.029489972 0.009532187
000030 69 54 f6 3c c7 74 c8 bc 41 ab ef bb 98 a6 ae bc
       0.030069547 -0.024469746 -0.007314116 -0.021319672
000040 95 b3 7a bc 5f e9 8c b9 e4 04 79 bd eb 79 f2 bc
       -0.015301605 -0.00026876756 -0.06079568 -0.02959915
000050 36 37 94 3d 00 89 12 3c d7 73 dd bc 55 5e cd 3c
       0.07237093 0.008943796 -0.027032776 0.025069395
000060 68 4a 29 3d c4 2c ed 3c 17 3f 1f bc 60 48 a6 3d
       0.041330725 0.02895201 -0.009719632 0.08119273
000070 60 a0 53 3d b7 e9 8c 3c e2 26 62 3c 11 d1 85 bc
       0.051666617 0.017201288 0.013803216 -0.016335042
000080 07 00 1c bd e3 1b f2 bc 7c 46 20 bd 10 9f 0e 3d
       -0.038085964 -0.029554313 -0.03912972 0.034819663
000090 d4 d1 b8 3c 14 3a 5b 3d 40 ed 96 3d c8 36 44 3d
       0.022560991 0.053522184 0.073694706 0.047903806
0000a0 fe 31 ed 3c fe a0 84 bc 87 81 18 bd c5 ef bc 3b
       0.028954502 -0.016190048 -0.037232902 0.0057658874
0000b0 d8 4c 8e 3c 95 1a 1b 3d 6d bf ce bc a5 89 88 bc
       0.017370626 0.037867147 -0.025237763 -0.016667197
0000c0 f1 c0 2e bd 0b db eb bc 08 f6 b4 3c 7c dc ac 3d
       -0.042664472 -0.028790971 0.022089973 0.084404916
0000d0 dc 05 34 bb c2 65 9e bb 96 a4 4a 3d 3d de 91 3d
       -0.0027469313 -0.004833908 0.049473368 0.07122467
0000e0 00 46 a1 3d 7d 75 b5 bb 5c 72 20 bc c6 4f 95 3d
       0.078746796 -0.0055376873 -0.00979289 0.07290606
0000f0 ff 09 56 3d 04 24 2d 3d ae bd 09 bd bc 41 69 bd
       0.052255627 0.042270675 -0.03362816 -0.056947455
000100 78 fe 41 3c 6f 15 2a 3c 97 43 fa bc 15 f5 c8 3c
       0.011840455 0.010381087 -0.030549807 0.024530927
000110 0c 26 02 3d 08 45 17 bc d1 5a 0e bd 20 71 4c bd
       0.031774566 -0.009232767 -0.034754578 -0.049912572
000120 c9 05 02 3d 7f dd b4 3c ab 5a dc bb 10 34 11 bc
       0.0317438 0.022078274 -0.0067246757 -0.00886251
000130 fe 22 98 3c 29 78 d5 3c f7 96 1b 3d da 6c 0d bc
       0.018571373 0.026058273 0.03798577 -0.008631909
000140 d1 e0 02 3c 05 1f 65 3c 9b aa 20 bc 8c f5 1b bc
       0.007988171 0.013984446 -0.0098063005 -0.009518992
000150 66 18 74 3d 28 ec 74 bc 64 1c 25 3d dd 26 d6 bb
       0.05959358 -0.014948882 0.04031028 -0.0065353946
000160 c5 35 18 bd 3f c9 46 3c 4e a2 27 bc e7 9c 45 bc
       -0.037160654 0.012132942 -0.010231568 -0.012061334
000170 01 d7 12 3b e3 77 16 3c fa 1d 22 bd 66 1d 17 bc
       0.0022405984 0.009183857 -0.03957937 -0.009223318
000180 61 da 58 bd 3e 69 a9 3c 72 f1 a1 3d 56 16 b9 bc
       -0.052942637 0.020680066 0.0790738 -0.022593658
000190 09 05 4a 3c 92 52 ca 3c 48 1c cf bc c1 3a 3c 3d
       0.012330302 0.024697576 -0.02528204 0.04595447
0001a0 e6 e0 7a 3c 1b 08 97 3c a5 35 32 3d 99 dd 50 bd
       0.015312409 0.018436482 0.04350819 -0.050992582
0001b0 34 b2 8a 3b fc 57 bc bc f4 e6 15 bd 5c fb 12 bc
       0.0042326692 -0.022991173 -0.036597207 -0.008971062
0001c0 76 1b 35 3c 1c d9 ad 3c 84 ec 0c 3d 38 8d a9 bc
       0.0110539105 0.02122169 0.034405246 -0.020697221
0001d0 bd 7b 8f 3c 7f 90 22 3c b1 39 8a bc a9 44 e7 bc
       0.017515058 0.009922146 -0.016873213 -0.028230982
0001e0 b1 e9 c2 bc 25 be ef 3c f6 73 0f 3d fa fc 9a bd
       -0.023793073 0.029265473 0.0350227 -0.07567783
0001f0 b1 ac 20 bd 90 8d 3a 3d 07 64 0b bc 2a 8b 0c bd
       -0.03922719 0.04554516 -0.008507735 -0.034312405
000200 c6 e6 bc 3b 6e 85 87 bb f4 58 b3 3c 0d 72 23 bd
       0.005764815 -0.004135779 0.021893002 -0.03990369
000210 27 85 31 bc a6 b7 c0 3b 33 41 09 bd 3c 54 1f 3d
       -0.010834969 0.0058812676 -0.033509444 0.03889869
000220 8a 91 41 bd 70 38 97 bd 2a 04 38 bb 95 b2 45 3b
       -0.047257937 -0.073838115 -0.0028078654 0.0030166258
000230 d7 f9 e7 3a 1c 33 0c 3d 1f 98 23 bc 72 63 a4 bc
       0.001769836 0.03422843 -0.009984999 -0.02006695
000240 ef c7 d6 bb 10 f3 b6 3a 47 45 45 3d 41 7d 37 3d
       -0.0065545957 0.0013957936 0.04816177 0.044797186
000250 12 f9 30 bc 46 7e 8d bc d8 6f 4b bc cf 11 33 3c
       -0.0108015705 -0.017272126 -0.012416802 0.010929539
000260 10 27 bd 3c fd 0c b9 3c f5 d8 8f bd 45 10 9d 3d
       0.023089916 0.022589201 -0.07023803 0.07669119
000270 de f1 0a 3c e8 da 4f bc 0f cf e6 bb ec 8a f8 bc
       0.008480517 -0.012686469 -0.0070437263 -0.03033968
000280 83 49 07 bb 01 46 8a 3c f9 7f d5 bc 35 2e 3e bc
       -0.0020643182 0.016879084 -0.026061999 -0.011607696
000290 e9 90 5a bc d5 8b 32 bd e7 9a c0 bc 0c 5d b2 3c
       -0.013340213 -0.043590385 -0.023511363 0.021772884
0002a0 c2 0b 3d bc 9b b9 d0 ba 7d 90 f7 ba d1 4e 01 bd
       -0.011538448 -0.0015924455 -0.0018887665 -0.031569306
0002b0 84 bf 8b 3c 8c 0f bb 3c 85 f5 09 3c b1 5d 99 3d
       0.017059095 0.022834562 0.008420353 0.07488573
0002c0 44 0d 13 3d ed 14 f1 bc c6 3b 5a 3d 0c d9 9d 3d
       0.035901323 -0.029428924 0.05327966 0.07707414
0002d0 9a c2 56 bd 3c 84 13 bd 68 ec 80 3d d9 a0 40 3d
       -0.05243168 -0.03601478 0.06295091 0.047028396
0002e0 b9 99 25 bd c3 b0 55 bd 93 ca ce 3b 22 a8 84 3d
       -0.040429804 -0.052170526 0.00631077 0.06477381
0002f0 ef 6c 0a bd 6a 39 8e bd bf 73 4e 3d 47 0b d8 3c
       -0.033795293 -0.069445446 0.050403353 0.026372565
000300 0f b2 67 3c e8 53 98 bb 7e bf 8c bc e4 06 94 3d
       0.014141574 -0.0046486743 -0.017181154 0.07227877
000310 77 9f 78 bd c6 f0 a0 bd ef 2f 92 3d f2 f2 67 3d
       -0.060698953 -0.07858424 0.07138049 0.056628175
000320 99 b7 ba bb f5 99 11 bd b4 6a 23 bd c3 fb 59 3d
       -0.005698156 -0.035547215 -0.039896682 0.053218614
000330 09 d3 8e 3d 00 e4 83 bd 27 66 cb 3c 1d 98 8a 3c
       0.069738455 -0.06439972 0.024828983 0.016918236
000340 f8 e6 0b 3d 5e 03 69 bd 54 bc 6c bd d2 13 42 bd
       0.034155816 -0.056887977 -0.05779679 -0.047382183
000350 53 c7 23 3c 40 54 66 3d 7f 6f 2f 3c af 77 33 3d
       0.009996253 0.05623269 0.010707735 0.04381531
000360 34 f6 d6 3c 7b f7 1f 3d 95 59 b0 3c 13 62 88 3c
       0.026240446 0.039054375 0.021527091 0.016648328
000370 da 9b 61 3c b4 ee b6 3c bf 5d 33 3c 29 e7 ca 3c
       0.013770068 0.02233062 0.010947644 0.024768429
000380 32 fe 3f 3d f7 c9 f7 bc 13 33 0d 3d 17 cf 9b 3d
       0.04687328 -0.030247672 0.034472536 0.07607859
000390 79 50 be 3d 19 e6 59 bd 7f 1f 71 3d a8 c8 2f bb
       0.09292693 -0.053197954 0.058867928 -0.0026822481
0003a0 a8 51 cb bd bf 09 c3 3c 15 74 1a 3e be 27 00 bd
       -0.09927684 0.023808358 0.15083344 -0.0312879
0003b0 c2 24 25 3d 03 42 36 3d c7 66 07 bd 2b fd ba 3a
       0.040318258 0.044496547 -0.033057 0.0014266124
0003c0 d2 22 b4 3a 3b 50 7e 3d 4b 88 fa 3d 51 e0 a6 3d
       0.0013743287 0.062088232 0.12233027 0.08148254
0003d0 0e e4 04 bd 1e c7 92 3b 27 7f 78 bd ae e2 9a 3c
       -0.032444052 0.004479303 -0.060668137 0.018906917
0003e0 ae be 87 3d 72 fa 46 3b 28 cf b6 3c e3 11 69 3c
       0.06628166 0.003036168 0.022315577 0.014225456
0003f0 92 77 63 bb b7 5d d9 3c 99 cd 2a 3c 9c e9 b2 bc
       -0.003470872 0.026533945 0.010424995 -0.02183991

conv2.bias f4 [32]
000000 9d b7 56 3c 70 6a 34 3c a2 91 7a 3b 48 54 2f 3c
       0.0131053 0.011011705 0.0038233777 0.010701247
000010 54 6e a1 bc 8e 87 58 3b 72 3e c8 bc cd 63 b3 bb
       -0.019705929 0.0033039781 -0.024443839 -0.0054745437
000020 a0 d2 48 bc 02 51 ca 3c c1 6f 4d 3c 53 c2 b1 bb
       -0.012257248 0.02469683 0.012538851 -0.0054247766
000030 45 b4 a8 3c 4d c5 95 3c ce 93 ca bb 9b c7 e7 bb
       0.020593772 0.018282557 -0.0061821705 -0.0070733554
000040 90 16 80 3c 59 cf 8a bc 47 14 c9 bb 20 54 97 bb
       0.015635759 -0.016944574 -0.0061364505 -0.004618183
000050 9c 51 16 bc 2c f0 b8 3c 99 28 87 3c 4a 5f 7e bc
       -0.009174731 0.02257546 0.01649885 -0.015525648
000060 b4 dd b7 bc 37 66 46 bc a6 8f 60 3c 24 cd 82 3c
       -0.022444583 -0.012109331 0.013706123 0.01596696
000070 1c 0c c1 bc e2 eb e9 3a 71 2d 50 bc 51 bd eb bb
       -0.023565345 0.0017846788 -0.012706147 -0.007194199

conv3.weight f4 [1, 32, 5, 5]
000000 56 ae ef 3c 8b 35 07 bc 09 b4 0c bd f4 37 39 bd
       0.029257935 -0.008252512 -0.034351382 -0.045219377
000010 00 ce 3f bd e1 90 6d bc d7 e6 c4 ba dc b7 83 3d
       -0.046827316 -0.014499874 -0.0015022409 0.06431553
000020 c8 fe 82 3d 6a d2 2d 3d 25 a2 23 bd 32 d0 d4 bc
       0.06396252 0.042436995 -0.039949555 -0.025978182
000030 29 c5 3b bc e7 73 4c 3d 7a 3e 2c 3d eb b6 4c bb
       -0.011460581 0.04991522 0.04205177 -0.0031236957
000040 36 da f3 3b b0 1d 2a bd df 7f 03 bb cc c8 3d 3d
       0.0074417843 -0.04153222 -0.002006523 0.046334073
000050 ba 17 99 3d 0d 31 24 bd d6 b1 9d bd 85 af 11 bd
       0.074752286 -0.04008584 -0.07699935 -0.03556778
000060 84 8a ab 3c 45 e0 c4 3c 76 82 9c 3c 05 d7 28 3d
       0.020940073 0.024032721 0.019105177 0.041220684
000070 4a d9 99 3c 8f 1b c5 bb 3b 4f 0e 3d ce c0 fe bc
       0.01878037 -0.006015248 0.03474353 -0.031097796
000080 42 51 8a bc 4c 36 11 bd 22 db c6 b9 17 00 e1 bd
       -0.01688445 -0.035452172 -0.0003792877 -0.10986345
000090 2e bb 37 bd 59 40 3c 3c 39 6a 4e bc d9 8c 0d 3c
       -0.044856243 0.011489951 -0.012598568 0.008639538
0000a0 44 45 6c bd a9 6e 1b 3e 71 d7 30 3d 01 1f 93 bd
       -0.057683244 0.15178932 0.04317421 -0.07183648
0000b0 f4 a6 c1 3c df 1d 7a bc 21 28 ce 3d b9 f0 f2 bc
       0.02363918 -0.015265911 0.10066248 -0.029655801
0000c0 a2 f5 8a bd 56 0e ae 3c 3a 7b 0e 3b 8e 5f d5 3c
       -0.06785132 0.02124707 0.002174093 0.02604654
0000d0 81 0e 0f bc 6e 02 e4 3c e3 b8 25 bc 3a 1c 85 bc
       -0.008731485 0.02783319 -0.010114881 -0.016248811
0000e0 52 00 a8 3c 46 7a 5a 3c 65 8e 01 bc 82 60 ef 3c
       0.020507965 0.013334816 -0.007907485 0.029220823
0000f0 92 25 90 3c b6 c3 13 3d 2c 66 ec 3c 3c 7e c5 3c
       0.01759604 0.036075316 0.028857313 0.024108045
000100 89 ca 84 3b af 33 eb 3b a8 eb 0d 3d 4b 0c a2 3c
       0.0040524644 0.007177792 0.034648567 0.019781252
000110 83 25 b5 bc 83 5c a7 bc 73 94 22 3c 0a 02 0f 3d
       -0.022112614 -0.020429855 0.009923088 0.034914054
000120 c1 63 bc 3c fe 27 80 bc 4f 2d 94 3a e6 c2 20 bd
       0.022996785 -0.01564407 0.0011305007 -0.03924837
000130 a5 69 38 3d 43 f1 8e 3c 7d cf 63 3d a1 a3 a5 bc
       0.045022625 0.017449027 0.055617798 -0.020219626
000140 0b 1e 7d bc da 69 4c 3c be 60 b9 bb 76 5a 1f 3d
       -0.015449057 0.012476409 -0.0056572845 0.03890463
000150 3e 19 f5 bb f9 bb 8a 3a 2d 4b 79 3c 36 04 05 bd
       -0.0074798157 0.0010584585 0.015215677 -0.03247472
000160 e7 5a 65 bd 0e fd b7 bc 47 79 09 bc ee f3 15 3d
       -0.055994894 -0.022459533 -0.008390731 0.036609583
000170 67 88 82 bd a0 a8 8e bc 67 c0 e2 3b 92 f0 70 bb
       -0.06373673 -0.017414391 0.006919909 -0.0036764485
000180 5a e1 12 bc ea 39 09 3d 14 91 9a 3c 53 d1 1c 3d
       -0.008964861 0.033502497 0.018868007 0.038285565
000190 cf 4d 21 bd 4e ac be bd 1e f7 fe 3d 7e bd 1c 3d
       -0.039380845 -0.09310208 0.124494776 0.03826665
0001a0 a6 19 07 bd dc db 01 bd 17 90 a2 3d a2 db 89 3e
       -0.032983445 -0.031703815 0.07937639 0.2692538
0001b0 7c 44 41 bd 1d e7 86 bb 42 b0 b3 bd 16 17 d4 bc
       -0.047184452 -0.0041169063 -0.08773853 -0.025889914
0001c0 83 32 dc bd 15 b7 82 be 9a a5 49 3d 0b 1a 75 bd
       -0.10751822 -0.25530306 0.049230196 -0.05983929
0001d0 41 02 85 bc 58 cd 34 bd a3 78 20 bc 3f 46 cf 3d
       -0.016236426 -0.044141144 -0.009794387 0.1012082
0001e0 5e 25 50 3d 19 71 c4 3d 8a 1e a8 3d 60 9a aa 3c
       0.050816886 0.09591884 0.0820895 0.020825565
0001f0 67 b6 79 b9 65 02 00 3d 54 a1 13 bc 43 89 8d bc
       -0.0002381444 0.031252284 -0.009010632 -0.017277366
000200 61 a8 f4 bc 98 ee 70 3c b6 f8 c0 bc a9 d3 a9 3c
       -0.029865446 0.014705323 -0.023556095 0.02073081
000210 f0 ee 3d bc 6a bb f0 3b 2d 0a ee 3c c5 64 f4 3a
       -0.011592612 0.0073465602 0.029057587 0.0018645754
000220 1d 80 6c 3c 22 5e 5f bc b1 a2 cd bc cf f5 8d 3b
       0.014434841 -0.013633283 -0.025101991 0.004332281
000230 3b 1e 65 bb 6c e8 90 bc cc 16 f8 3b c7 e9 cb bc
       -0.0034960646 -0.017688952 0.007571077 -0.024891747
000240 23 f7 c7 bc d3 1f fa 3c 67 ce f5 3c 59 90 9f 3b
       -0.024409836 0.030532753 0.030005647 0.0048695025
000250 77 f7 5b bc 5c 0e 93 3a 52 d1 a5 bb db e6 57 bd
       -0.013425699 0.0011219489 -0.0050603533 -0.052710395
000260 b9 15 26 bd 8e 9c b9 3c 32 0c 4d bd 69 57 67 3d
       -0.04054806 0.022657659 -0.05006046 0.056479845
000270 38 6d a0 bc bf c6 1c 3c 8d bf 82 3d 1a a2 55 3d
       -0.01958333 0.009568869 0.06384192 0.052156545
000280 ac 94 d8 3b c9 36 c7 3b 74 3c 69 bc fb 3d ef 3b
       0.00660952 0.006079529 -0.014235605 0.00730109
000290 3a 84 3a 3d 66 f7 25 3c 41 44 0a 3c b6 26 73 bd
       0.045536257 0.010129785 0.008439125 -0.05936309
0002a0 17 46 3d bd a6 6f 4d bc 56 29 62 ba da 1f ab 3c
       -0.04620942 -0.012538826 -0.00086273754 0.020889211
0002b0 46 fe bf bb 2f ff eb 3b 45 31 32 bc bf 65 fc bc
       -0.005859169 0.007202051 -0.010876005 -0.030810235
0002c0 2e 21 96 bc 65 dc 05 3d d6 75 e0 3c 42 c1 ee bc
       -0.018326368 0.032680888 0.027399939 -0.029144887
0002d0 c6 65 a6 bb a2 26 d1 3c c6 ab be 3c 5e 18 57 3c
       -0.0050780503 0.025531117 0.023275267 0.013128368
0002e0 e3 8c 58 bc d3 8d fe 3c 99 dc 14 3d c6 56 bc bb
       -0.013217184 0.031073486 0.03634319 -0.005747649
0002f0 36 ef 04 bc 55 0f eb 3b 51 3b af 3c 12 0d 77 3c
       -0.008113673 0.0071734586 0.021390589 0.0150788
000300 7a e3 0d bd 01 14 8c bc 45 68 97 3c ca 11 a4 3c
       -0.034640767 -0.017099382 0.018482337 0.020028014
000310 6d b7 f1 3b b5 68 83 bb cc c2 10 bd 60 9f 64 bc
       0.0073766024 -0.004010285 -0.035342023 -0.013954014
000320 61 ee 4e bd 0d 86 39 bd 15 ae 11 bd 8c 53 7a bc
       -0.050520305 -0.045293856 -0.03556641 -0.015278708
000330 86 d0 d3 3c a1 36 27 3a c1 91 28 3e ca 90 b6 bd
       0.025856268 0.0006378685 0.1646185 -0.08914335
000340 0c 83 15 bd 79 d2 24 3d da 6e ce bd 7c 9e 59 3e
       -0.03650193 0.040239785 -0.10079737 0.21251863
000350 ab 9c 46 3d df ab b3 bc 7d 1f 0d 3d 1e 1b e9 bd
       0.048489254 -0.02193254 0.034453858 -0.11382125
000360 d5 42 86 bd 0d 61 9d bc c1 31 58 bd bb 66 d7 bb
       -0.06555716 -0.019211316 -0.052781824 -0.0065735257
000370 95 0a 83 3d 42 71 06 3c 6b c9 4f 3b 15 20 09 3c
       0.06398503 0.008205714 0.0031705748 0.008369465
000380 60 9b 17 3b ab 3d 22 3d 23 23 b6 ba d1 eb 5c bd
       0.0023133382 0.039609592 -0.001389597 -0.05393583
000390 08 48 c1 bc 60 69 67 3d 0f 45 a7 3d 57 13 99 3c
       -0.023593917 0.056496978 0.08167469 0.01868598
0003a0 8c c8 bf bc 33 7a 80 3c a9 9a 2a 3d 86 77 ec bc
       -0.023411058 0.01568327 0.0416514 -0.028865587
0003b0 94 02 2d bc c6 46 a1 3b 24 6c 15 bc 3b f3 be bc
       -0.010559697 0.004921767 -0.009120021 -0.02330934
0003c0 91 78 72 bd 9c ec cc bd 60 e4 82 ba 9b 09 1b 3b
       -0.059197012 -0.10006067 -0.0009986274 0.0023656848
0003d0 b4 ac 98 bb 17 99 15 3d d1 b2 19 3d 60 2e 7a 3d
       -0.0046592597 0.03652295 0.03752405 0.061079383
0003e0 2a 24 89 3b 6d d9 c3 bc f7 90 7f bc 5e e7 cf 3c
       0.0041852193 -0.023907388 -0.015598527 0.02537888
0003f0 96 6e 17 3d 72 8f 3e bc 62 cd d8 bc 8d 1d 46 bd
       0.036970697 -0.01163088 -0.026465122 -0.048368026
